…
se\n","\n","model = models.Sequential()\n","model.add(vgg_conv)\n","model.add(layers.Flatten())\n","model.add(layers.Dense(1024, activation='relu'))\n","model.add(layers.Dropout(0.5))\n","model.add(layers.Dense(num_labels, activation='sigmoid'))\n","model.summary()"],"execution_count":null,"outputs":[{"output_type":"stream","text":["Model: \"sequential\"\n","_________________________________________________________________\n","Layer (type)                 Output Shape              Param #   \n","=================================================================\n","vgg16 (Functional)           (None, 6, 4, 512)         14714688  \n","_________________________________________________________________\n","flatten (Flatten)            (None, 12288)             0         \n","_________________________________________________________________\n","dense (Dense)                (None, 1024)              12583936  \n","_________________________________________________________________\n","dropout (Dropout)            (None, 1024)              0         \n","_________________________________________________________________\n","dense_1 (Dense)              (None, 9)                 9225      \n","=================================================================\n","Total params: 27,307,849\n","Trainable params: 17,312,777\n","Non-trainable params: 9,995,072\n","_________________________________________________________________\n"],"name":"stdout"}]},{"cell_type":"code","metadata":{"id":"hTlV4n6R6BY0"},"source":["model.compile(optimizer=optimizers.Adam(learning_rate=1e-5), loss='b
…
dd(Dropout(0.25))\n","model.add(Flatten())\n","model.add(Dense(128, activation='relu'))\n","model.add(Dropout(0.5))\n","model.add(Dense(64, activation='relu'))\n","model.add(Dropout(0.5))\n","model.add(Dense(num_classes, activation='softmax'))\n","model.summary()"],"execution_count":null,"outputs":[{"output_type":"stream","text":["Model: \"sequential_1\"\n","_________________________________________________________________\n","Layer (type)                 Output Shape              Param #   \n","=================================================================\n","conv2d (Conv2D)              (None, 198, 148, 32)      896       \n","_________________________________________________________________\n","max_pooling2d (MaxPooling2D) (None, 99, 74, 32)        0         \n","_________________________________________________________________\n","dropout_1 (Dropout)          (None, 99, 74, 32)        0         \n","_________________________________________________________________\n","conv2d_1 (Conv2D)            (None, 97, 72, 32)        9248      \n","_________________________________________________________________\n","max_pooling2d_1 (MaxPooling2 (None, 48, 36, 32)        0         \n","_________________________________________________________________\n","dropout_2 (Dropout)          (None, 48, 36, 32)        0         \n","_________________________________________________________________\n","conv2d_2 (Conv2D)            (None, 46, 34, 64)        18496     \n","_________________________________________________________________\n","max_pooling2d_2 (MaxPooling2 (None, 23, 17, 64)        0         \n","_________________________________________________________________\n","dropout_3 (Dropout)          (None, 23, 17, 64)        0         \n","_________________________________________________________________\n","conv2d_3 (Conv2D)            (None, 21, 15, 64)        36928     \n","_________________________________________________________________\n","max_pooling2d_3 (MaxPooling2 (None, 10, 7, 64)         0         \n","_________________________________________________________________\n","dropout_4 (Dropout)          (None, 10, 7, 64)         0         \n","_________________________________________________________________\n","flatten_1 (Flatten)          (None, 4480)              0         \n","_________________________________________________________________\n","dense_2 (Dense)              (None, 128)               573568    \n","_________________________________________________________________\n","dropout_5 (Dropout)          (None, 128)               0         \n","_________________________________________________________________\n","dense_3 (Dense)              (None, 64)                8256      \n","_________________________________________________________________\n","dropout_6 (Dropout)          (None, 64)                0         \n","_________________________________________________________________\n","dense_4 (Dense)              (None, 9)                 585       \n","=================================================================\n","Total params: 647,977\n","Trainable params: 647,977\n","Non-trainable params: 0\n","_________________________________________________________________\n"],"name":"stdout"}]},{"cell_type":"code","metadata":{"id":"Ihq0VMxkHfsD","colab":{"base_uri":"https://localhost:8080/"},"executionInfo":{"status":"ok","timestamp":162
…
